model/data.pth (torch, 18559 bytes, 6 tensors)

l1.weight f4 [16, 143]
-0.14338572 0.6481102 0.4345234 -0.5447959 0.17445572 0.48071414 0.4634312 0.2577327
0.47570452 0.3909544 0.11937839 0.69268787 -0.28003818 0.12871924 0.7515205 -0.14833885
-0.37305164 -0.49257666 -0.021523513 0.44685692 0.19927806 0.19310054 0.06985139 -0.21130723
0.020955961 0.1024235 0.21352154 0.43824875 -0.12019535 -0.1708674 -0.0067088855 -0.082769595
0.39232898 0.9918591 0.4219264 -0.808507 -0.6047161 0.108999595 0.17420968 -0.52813673
-0.45671085 -0.0045800656 0.12758146 -0.2813535 -0.07317985 0.09187933 -0.5814389 -0.12296026
-0.04838378 0.16884433 0.75738394 -0.72906077 0.7624676 0.092575416 -0.70417976 1.0415328
-0.14432803 0.3230012 0.03553715 0.44907272 0.12796502 -0.061644033 -0.025300872 0.5336914
1.0037987 -0.2854251 0.07198323 0.8980092 0.094038926 0.15852554 -1.0634211 -0.57004803
0.7434627 0.0612538 0.21020985 -0.09472406 0.32796898 0.2949215 0.22634584 -0.015354791
-0.03145986 0.4137439 0.13028315 0.05953453 0.19323795 0.032443997 -0.29218772 0.4693768
-0.8136041 -0.656792 0.6890243 0.16872743 0.03161679 -0.06353841 -0.27547443 0.3743493
-0.17548354 -0.26109904 -0.59373844 0.7351477 0.09082395 -0.3537078 0.20276895 -0.036064006
0.8537927 -0.8375441 -1.0493546 0.2977177 0.12930603 -0.49732065 -0.12113455 1.3148677
-0.22006173 0.5094286 0.21783674 -0.95162594 -0.07886557 0.71957815 -0.13988073 -0.05485899
0.3558631 1.1861253 0.16360733 -0.09184628 -0.5589008 0.24978504 -0.41560555 -0.025758194
-0.8014487 -0.1732346 0.46594477 0.40986073 0.933185 0.24509539 0.7605862 -0.40092617
0.6424769 -0.69588387 -0.52122974 -0.6675735 0.51562965 -0.71113694 0.120032474 -0.16662979
-0.44983363 0.042942427 -0.46567437 0.05799458 0.36647472 0.4956259 0.2086736 0.26481944
0.44562274 0.41844392 0.8944867 -0.6673854 -0.05238999 0.390064 0.48822162 -0.41091523
-0.47665146 0.14916727 -0.18196705 0.63846356 0.5377724 0.024903191 0.4961133 1.0392625
0.29561472 -0.10783509 1.2215537 -0.15531747 -0.19451083 0.14951217 0.08785475 0.1344833
0.08721848 0.47002637 -0.38155028 -0.3790365 -0.21956259 0.1311089 -0.58703315 1.2481476
-0.08685546 -0.11614819 0.46339446 0.038541503 0.07470266 -0.35172844 -0.007968552 -0.056956388
-0.065320455 1.2508143 -0.78683215 0.79995745 1.0504949 0.13021176 0.8213187 -0.11720588
0.4448581 0.11504942 -0.5931706 0.091196164 0.34927407 0.27950668 0.4499905 -0.8700697
-0.30447778 0.013331061 0.2780364 0.20820193 0.38476038 0.9906857 -0.028833905 0.5457754
0.36527374 -0.02170288 0.38411376 -0.022198081 0.035012916 0.04332671 0.30898163 0.19120272
0.024921885 0.11370171 -0.032676972 0.12907794 -0.2659538 -0.24440624 -0.2684494 0.8880825
-0.552686 0.43232355 0.039139923 0.18796586 0.35888144 -0.42243233 0.30611762 -0.2352554
0.596514 0.4002834 -0.86977696 0.7373536 -0.24718143 0.025521053 -0.0542449 -0.748984
-0.39168602 -0.64633507 -0.08025516 -0.27788705 -0.68108404 1.0078764 1.1443084 0.4939475
00000000: b5d3 12be 8dea 253f da79 de3e be77 0bbf
00000010: 85a4 323e 2a20 f63e db46 ed3e 8af5 833e
00000020: 8b8f f33e 2d2b c83e a87c f43d fe53 313f
00000030: 2a61 8fbe face 033e a663 403f 24e6 17be
00000040: a000 bfbe 0233 fcbe 1452 b0bc 6eca e43e
00000050: 8c0f 4c3e 26bc 453e 3f0e 8f3d ec60 58be
00000060: d6ab ab3c 69c3 d13d 64a5 5a3e 2462 e03e
00000070: fb28 f6bd ddf7 2ebe 36d6 dbbb 1b83 a9bd
00000080: 58df c83e 7aea 7d3f bd06 d83e 51fa 4ebf
00000090: adce 1abf 2e3b df3d 0664 323e f833 07bf
000000a0: 01d6 e9be 6014 96bb b7a4 023e 910d 90be
000000b0: 51df 95bd 3b2b bc3d 2ed9 14bf 97d2 fbbd
000000c0: 122e 46bd 87e5 2c3e eae3 413f baa3 3abf
000000d0: 1431 433f 2e98 bd3d 2045 34bf f250 853f
000000e0: baca 13be 6a60 a53e 678f 113d dcec e53e
000000f0: 4309 033e 747e 7cbd c643 cfbc 00a0 083f
00000100: 7a7c 803f 3d23 92be f26b 933d eee3 653f
00000110: 7b97 c03d 8554 223e 2f1e 88bf abee 11bf
00000120: 9253 3e3f 44e5 7a3d 4041 573e b0fe c1bd
00000130: 8deb a73e f3ff 963e 34c7 673e a992 7bbc
00000140: 0edc 00bd 3ed6 d33e f268 053e 7bda 733d
00000150: 2be0 453e ffe3 043d a199 95be 2852 f03e
00000160: 5c48 50bf 8523 28bf e663 303f e2c6 2c3e
00000170: 9b80 013d 6d20 82bd fc0a 8dbe b6aa bf3e
00000180: f5b1 33be c6ae 85be 3eff 17bf a432 3c3f
00000190: e801 ba3d 3019 b5be aaa2 4f3e dab7 13bd
000001a0: 2992 5a3f 4a69 56bf 4051 86bf 746e 983e
000001b0: cd68 043e d0a0 febe 6415 f8bd 964d a83f
000001c0: dd57 61be ea69 023f 9810 5f3e c29d 73bf
000001d0: 4684 a1bd 4636 383f e53c 0fbe d2b3 60bd
000001e0: b033 b63e f4d2 973f ae88 273e e719 bcbd
000001f0: 1f14 0fbf a6c7 7f3e 40ca d4be d902 d3bc
00000200: be2b 4dbf 6964 31be 5090 ee3e 44d9 d13e
00000210: 36e5 6e3f 49fa 7a3e c7b5 423f 3246 cdbe
00000220: 5e79 243f 7225 32bf 506f 05bf 19e6 2abf
00000230: 4e00 043f 120d 36bf 96d3 f53d 00a1 2abe
00000240: 9850 e6be 66e4 2f3d df6c eebe ba8b 6d3d
00000250: 93a2 bb3e aec2 fd3e 88ae 553e 6a96 873e
00000260: aa28 e43e 483e d63e 15fd 643f c5d9 2abf
00000270: e396 56bd 78b6 c73e 2ff8 f93e 7b63 d2be
00000280: a90b f4be 4ebf 183e 9255 3abe 5972 233f
00000290: 74ab 093f c701 cc3c 9002 fe3e 8e06 853f
000002a0: d05a 973e a5d8 dcbd df5b 9c3f 8b0b 1fbe
000002b0: d92d 47be b819 193e 31ed b33d fdb5 093e
000002c0: 9a9f b23d 4ca7 f03e 8f5a c3be 1211 c2be
000002d0: 04d5 60be 6941 063e ce47 16bf 4dc3 9f3f
000002e0: 47e1 b1bd 1adf edbd 0a42 ed3e b2dd 1d3d
000002f0: b5fd 983d c015 b4be 888e 02bc 1a4b 69bd
00000300: bbc6 85bd af1a a03f d56d 49bf 03ca 4c3f
00000310: 9e76 863f 3b56 053e f141 523f a309 f0bd
00000320: 71c4 e33e 089f eb3d 07da 17bf 0ec5 ba3d
00000330: 0dd4 b23e 801b 8f3e 2865 e63e e3bc 5ebf
00000340: 83e4 9bbe 866a 5a3c c95a 8e3e e332 553e
00000350: 50ff c43e 949d 7d3f 1535 ecbc f0b7 0b3f
00000360: 2905 bb3e 3dca b1bc 8faa c43e c0d8 b5bc
00000370: b469 0f3d 5977 313d d732 9e3e a5ca 433e
00000380: fb28 cc3c 71dc e83d 4ad8 05bd 022d 043e
00000390: 192b 88be a145 7abe 3372 89be 6059 633f
000003a0: d47c 0dbf 8359 dd3e 2f51 203d 1f7a 403e
000003b0: 4fbf b73e 0d49 d8be 73bb 9c3e cbe6 70be
000003c0: 24b5 183f f2f1 cc3e b4a9 5ebf 35c3 3c3f
000003d0: 211d 7dbe 8711 d13c e62f 5ebd 6abd 3fbf
000003e0: 128b c8be 3776 25bf d15c a4bd 3647 8ebe
000003f0: 865b 2ebf 1802 813f b378 923f b0e6 fc3e

l1.bias f4 [16]
0.6831196 0.38320866 0.75760704 0.6748292 0.6658129 0.66291964 0.6216146 0.46486408
0.6808642 0.36418632 0.62092865 0.57819617 0.65785086 0.7082358 0.77951527 0.630973
00000000: ede0 2e3f ed33 c43e 89f2 413f 9bc1 2c3f
00000010: b772 2a3f 1ab5 293f 2222 1f3f aa02 ee3e
00000020: 1e4d 2e3f a176 ba3e 2ef5 1e3f aa04 143f
00000030: ea68 283f f14e 353f 508e 473f 7287 213f

l2.weight f4 [16, 16]
1.64105 0.23964404 0.20671016 0.9881186 -0.4699704 1.2384323 0.45696795 -0.095356375
1.0782728 0.29870382 -1.1060696 0.054911517 -1.3557051 0.41925558 -0.71590924 1.0340705
-0.6887328 -0.39535168 1.2535021 1.3418634 1.1881367 0.3166621 0.24563156 0.44130802
-0.9762088 0.2469844 -0.28201196 -1.0911121 -0.93198633 0.6786948 0.3161053 0.32195824
1.124004 -1.2547382 0.22518381 -0.007847367 -0.12946168 -0.70074505 -0.91824657 1.6331506
1.070464 1.154565 0.848411 1.1418447 0.49485672 1.2479783 -0.3381457 -0.4712628
1.1690593 0.9648502 -0.2703385 -0.3524384 -0.70999736 0.9709369 1.3797653 -1.2151072
0.54169995 -0.30153412 0.9259445 -0.34335396 -0.041737493 -0.5104193 1.0539742 0.5164972
1.0217879 1.7981884 -0.044177327 0.012126353 -0.010059193 1.2058057 0.9583964 1.2083554
-0.9339158 1.4772631 0.16487736 0.62054217 0.90619904 -0.87563246 -0.21706885 0.81198037
0.88488376 0.4218851 0.4029427 -0.40438592 0.9775502 -0.2866827 0.24009587 0.35975575
1.4167387 1.1924968 0.70421326 1.1230756 1.0477966 -1.2101301 0.4663419 -1.3305272
-0.55805695 -0.52183795 -0.47257707 0.91557634 0.9985818 0.37028864 1.2845665 -1.2284127
0.48709548 -0.43673638 0.8396704 -0.653552 0.079371646 -0.22995797 1.0114245 0.24443878
1.1209308 1.5535431 1.232087 0.1530818 0.9639301 -0.775347 -0.40576962 1.4174289
1.1587507 0.28343478 0.92076623 -0.99760705 -0.68657357 -1.283721 -0.35008132 0.87420464
-0.5816973 -0.14637934 -0.18414424 1.1248157 -0.5575859 -0.3343518 0.20492475 0.19993648
-0.9668349 0.42851543 1.3671271 -0.7751821 -0.36934823 1.1879443 1.3614473 0.7996306
-0.6014274 -1.1614318 0.9360597 0.65915644 1.4881496 0.8910648 -0.5826348 -1.0728828
1.0270933 -1.107302 -0.3228993 -0.20636778 1.3622522 0.4200093 0.8933232 -0.274337
0.19290452 -0.5662949 1.1436735 -0.07122043 1.2991757 0.6928649 -0.13759314 -0.45990065
1.1436448 -1.3492827 -0.707376 0.9048572 0.89936006 1.4878249 -1.0362515 1.3381877
0.4686368 -0.26912993 0.18431666 -0.8792171 -0.5130957 1.4075074 1.3860879 0.6653309
-0.40929967 1.1421372 -0.17934778 1.5426965 1.4651369 1.2167261 0.40861595 0.22017208
1.64946 -0.93133557 1.0938555 -0.42274836 -0.43899056 0.5512327 -0.4329051 0.16553852
0.33333725 -0.35623932 0.79262173 -1.191753 -0.0964944 0.046222106 0.74074334 0.30509964
-0.5519119 1.0213873 1.3450596 0.5740299 0.7386996 -0.85485095 0.4246101 1.18438
-0.90790087 0.8591711 0.9445524 0.51272285 -0.67950255 1.1281683 -0.5234296 0.60915804
0.17288534 -0.14309645 -0.2925893 0.091238596 -0.14446837 0.153304 -0.060546726 0.0902731
-0.034034207 0.036279615 0.116463535 -0.19867821 -0.16087201 -0.1347072 -0.12990662 -0.24136013
0.21680762 0.16047205 -0.07857804 -0.24307548 0.05329435 -0.07971522 -0.11494715 -0.00403513
-0.057576414 -0.2047195 -0.18686813 -0.07108 -0.18537903 0.15235761 -0.21258952 0.066232234
00000000: ed0d d23f 3f65 753e d4ab 533e 57f5 7c3f
00000010: f69f f0be f384 9e3f b4f7 e93e 344a c3bd
00000020: d804 8a3f b5ef 983e b093 8dbf e6ea 603d
00000030: bf87 adbf aba8 d63e d445 37bf 6c5c 843f
00000040: cb50 30bf 896b cabe c272 a03f 2ec2 ab3f
00000050: dd14 983f 8921 a23e d786 7b3e 20f3 e13e
00000060: d2e8 79bf 7be9 7c3e df63 90be 90a9 8bbf
00000070: a896 6ebf f1be 2d3f 8ed8 a13e b6d7 a43e
00000080: 5ddf 8f3f 439b a0bf 9696 663e 3e92 00bc
00000090: 9a91 04be 0764 33bf 3512 6bbf 140b d13f
000000a0: f704 893f c9c8 933f 7731 593f f827 923f
000000b0: dc5d fd3e c1bd 9f3f 6f21 adbe 5c49 f1be
000000c0: bca3 953f 6c00 773f cf69 8abe ce72 b4be
000000d0: 63c2 35bf 528f 783f 269c b03f a288 9bbf
000000e0: d9ac 0a3f ae62 9abe b30a 6d3f 17cc afbe
000000f0: eff4 2abd d7aa 02bf a0e8 863f 2939 043f
00000100: f2c9 823f 0a2b e63f 49f3 34bd 9cad 463c
00000110: 50cf 24bc d757 9a3f 7759 753f 64ab 9a3f
00000120: 1b15 6fbf f516 bd3f 9cd5 283e dadb 1e3f
00000130: a9fc 673f 7329 60bf 4c47 5ebe f2dd 4f3f
00000140: be87 623f 5301 d83e 814e ce3e ac0b cfbe
00000150: bb40 7a3f 13c8 92be b1db 753e e831 b83e
00000160: b257 b53f bca3 983f 5247 343f f1c0 8f3f
00000170: 331e 863f 8be5 9abf 5ec4 ee3e b74e aabf
00000180: d2dc 0ebf 2c97 05bf 9ff5 f1be 3663 6a3f
00000190: 0fa3 7f3f 7996 bd3e ad6c a43f a13c 9dbf
000001a0: 9464 f93e e99b dfbe a4f4 563f 2f4f 27bf
000001b0: 9a8d a23d 1a7a 6bbe 5c76 813f 294e 7a3e
000001c0: a97a 8f3f 80da c63f 07b5 9d3f 7ac1 1c3e
000001d0: 1fc4 763f 247d 46bf 09c1 cfbe 4f6e b53f
000001e0: f151 943f 5d1e 913e 56b7 6b3f 2d63 7fbf
000001f0: 49c3 2fbf f850 a4bf dc3d b3be e0cb 5f3f
00000200: 1dea 14bf 77e4 15be 4f90 3cbe f6f9 8f3f
00000210: f3bd 0ebf 2930 abbe cbd7 513e 26bc 4c3e
00000220: 7e82 77bf 6066 db3e 05fe ae3f 5672 46bf
00000230: 361b bdbe 8f0e 983f e843 ae3f 97b4 4c3f
00000240: 25f7 19bf cca9 94bf 9ca1 6f3f 7abe 283f
00000250: b07b be3f d31c 643f 8e27 15bf 3954 89bf
00000260: cb77 833f 12bc 8dbf 0f53 a5be 1352 53be
00000270: 485e ae3f 750b d73e d4b0 643f e675 8cbe
00000280: c388 453e b4f8 10bf e563 923f 04dc 91bd
00000290: 644b a63f 985f 313f 37e5 0cbe 1978 ebbe
000002a0: f462 923f 4cb5 acbf 9816 35bf b9a4 673f
000002b0: 763c 663f 0c71 be3f e4a3 84bf bc49 ab3f
000002c0: 2af1 ef3e 66cb 89be 82bd 3c3e 5f14 61bf
000002d0: 3d5a 03bf 3429 b43f 546b b13f 2053 2a3f
000002e0: ba8f d1be 8d31 923f f2a6 37be 1477 c53f
000002f0: 9b89 bb3f aebd 9b3f 1c36 d13e ca74 613e
00000300: 8121 d33f 026c 6ebf 7503 8c3f 7972 d8be
00000310: 5fc3 e0be 961d 0d3f bda5 ddbe ee82 293e
00000320: 2eab aa3e 0065 b6be 42e9 4a3f 5d8b 98bf
00000330: db9e c5bd 6453 3d3d 5ba1 3d3f 0536 9c3e
00000340: 194a 0dbf d2bc 823f ea2a ac3f a0f3 123f
00000350: 6b1b 3d3f 83d7 5abf 7f66 d93e c499 973f
00000360: 316c 68bf a3f2 5b3f 30ce 713f ce41 033f
00000370: e1f3 2dbf d267 903f 7bff 05bf c8f1 1b3f
00000380: db08 313e e087 12be 44ce 95be 4ddb ba3d
00000390: 84ef 13be b9fb 1c3e d8ff 77bd 1ae1 b83d
000003a0: 7467 0bbd ef99 143d 6f84 ee3d 4d72 4bbe
000003b0: a2bb 24be aff0 09be 3e06 05be 1c27 77be
000003c0: d102 5e3e c952 243e 86ed a0bd c7e8 78be
000003d0: 2d4b 5a3d bc41 a3bd 6969 ebbd 2039 84bb
000003e0: 3fd5 6bbd fda1 51be 5c5a 3fbe 6492 91bd
000003f0: 00d4 3dbe a203 1c3e 11b1 59be c4a4 873d

l2.bias f4 [16]
0.1282436 0.39277217 0.33110797 0.19760177 -0.2562497 0.38494197 0.26074237 0.17066528
0.7300499 0.5873738 0.23048683 0.34486285 0.59465915 -0.0627067 -0.12861706 -0.16327582
00000000: 4a52 033e 6f19 c93e fc86 a93e 1e58 4a3e
00000010: 2933 83be 1d17 c53e 0680 853e e1c2 2e3e
00000020: 8de4 3a3f 215e 163f bd04 6c3e dd91 b03e
00000030: 953b 183f 5f6c 80bd 31b4 03be c731 27be

l3.weight f4 [50, 16]
-1.7371806 -0.46262404 0.35595402 -0.64079064 -0.029634465 -0.4231003 -0.59736943 -0.46128446
0.38460007 -0.8963884 0.033484936 0.3804592 -0.054745745 0.25825182 -0.18928254 0.10051602
0.3807093 -0.7940769 -0.45745796 0.098333314 0.46498686 0.12629993 0.3253012 0.08012852
-0.28553778 -1.4588125 -1.4384099 0.034906305 -1.4289424 -0.12400202 -0.049251884 -0.15428196
-0.49573115 -0.85156375 -1.7615392 0.28959212 0.5636203 -0.29755569 0.45352244 -0.57644516
0.42916462 -0.6356312 -0.5572765 0.4450276 -1.5706346 -0.07655429 -0.18505244 -0.1756099
-0.7513811 -1.265926 0.5387185 -0.6136239 0.1445977 0.6004879 -1.3039017 -0.09046719
-0.6892154 -0.38947514 -0.30139878 0.14488193 -0.3393199 -1.4613185 -0.15145414 -0.18818673
-0.34983835 -0.64445347 -0.53176814 0.459946 0.4509306 0.116598904 -0.782365 -1.5585067
-1.1062104 0.13463695 0.39668685 0.44967955 -1.4177387 -1.471818 -0.18264712 0.046621352
0.4182862 -1.1388136 0.19751684 -1.2057416 0.020052921 -0.038359173 -0.94523853 -1.2811735
-0.6054827 -0.6758658 0.15788572 0.41658446 -1.2004163 0.3119454 0.021318605 0.1969001
0.03626551 -1.0108519 0.092644885 -0.52650106 -1.0571744 -0.023425438 -0.85998124 -1.1366596
-0.6289877 0.4656884 0.5222739 0.16514206 0.6502491 -1.4086052 -0.17726538 0.07077864
-1.5613376 -0.89297426 0.10975826 -1.0502919 -0.5742316 0.2972529 -1.3890924 -0.35033143
-0.74259216 0.3330131 0.4311067 -0.06170533 -1.0889521 0.48083323 -0.05284994 0.20339262
-1.8759036 -0.8296672 0.026794037 -1.5013843 -0.11558767 0.48669645 -0.1633357 -1.5321016
-0.4581762 0.50762725 0.3897423 0.5115836 -1.2009602 -1.8192704 0.081812546 0.08030387
0.01791503 -0.095131196 -1.0877478 -0.48222524 0.3849455 -0.6574815 -1.2238225 -0.07002573
-0.9442193 -0.25146058 0.55898756 0.41274363 -0.75271785 0.34393242 -0.0017981532 -0.12895633
0.17610349 -0.17517175 -1.917832 0.30946878 -0.13904803 -0.1780847 0.3600554 0.3830754
-0.19328135 -0.120828755 -0.02744072 -1.3074995 -0.100936346 -0.04857349 0.10556099 0.12426742
-1.0077411 -0.06769756 -1.9296299 0.2758464 0.036959138 -1.2291614 0.11546347 -0.79888934
0.16735268 0.31363973 0.28381133 0.111875325 0.47967178 0.13111307 -0.20359355 0.01006853
-1.4852215 -0.12012996 -0.77315164 -0.50801736 -1.0315073 0.43391442 0.5651071 0.24164893
-0.46297705 0.7054097 0.421784 -1.2745979 -0.29362538 -1.3940346 0.047195 0.19577928
0.5279287 -0.05548658 -0.12027939 -0.6957401 0.24262041 -1.3131948 -0.90975356 0.12906152
0.018577691 -1.2439129 -0.10924625 0.02087257 -0.3924816 0.2139636 -0.21926148 0.09786162
0.58481324 0.50591975 -0.8942198 -0.59985656 -0.50685656 -1.9002076 0.03425702 -0.91731745
0.010185737 -0.09829285 0.41080922 0.180178 -0.41940594 0.002439708 -0.063287735 -0.18479669
0.06716887 0.053382043 -0.50095195 -0.05692052 0.1941083 -0.87430733 -0.18845043 -1.8239073
0.2684661 -0.45061773 -0.36709434 0.39986667 -0.33063602 0.15220043 -0.0054714144 0.038101334
00000000: ef5b debf 0fdd ecbe 9b3f b63e db0a 24bf
00000010: fac3 f2bc 9aa0 d8be 34ed 18bf 7a2d ecbe
00000020: 4dea c43e b679 65bf 8027 093d 8ccb c23e
00000030: 133d 60bd 9539 843e 48d3 41be 58db cd3d
00000040: 54ec c23e a048 4bbf ee37 eabe fa62 c93d
00000050: c212 ee3e c554 013e e18d a63e 6c1a a43d
00000060: 0232 92be 5eba babf d11d b8bf eaf9 0e3d
00000070: 96e7 b6bf c5f4 fdbd 58bc 49bd 17fc 1dbe
00000080: 79d0 fdbe 1500 5abf 1e7a e1bf 6b45 943e
00000090: 6c49 103f 3859 98be 1834 e83e e991 13bf
000000a0: 77bb db3e bab8 22bf aca9 0ebf a8da e33e
000000b0: 8e0a c9bf 7fc8 9cbd 637e 3dbe 15d3 33be
000000c0: 835a 40bf dd09 a2bf 75e9 093f 7516 1dbf
000000d0: 6b11 143e 93b9 193f 40e6 a6bf dd46 b9bd
000000e0: 6c70 30bf 4969 c7be f150 9abe ee5b 143e
000000f0: 57bb adbe 7c0c bbbf cb16 1bbe 06b4 40be
00000100: 031e b3be e7fa 24bf f521 08bf 0b7e eb3e
00000110: 60e0 e63e 68cb ee3d 1349 48bf 267d c7bf
00000120: 4d98 8dbf 45de 093e 8a1a cb3e 663c e63e
00000130: 7678 b5bf 8864 bcbf d907 3bbe 08f6 3e3d
00000140: 9c29 d63e a5c4 91bf db41 4a3e be55 9abf
00000150: 0646 a43c 821e 1dbd 27fb 71bf 7efd a3bf
00000160: ea00 1bbf 8b05 2dbf cbac 213e 8f4a d53e
00000170: 3ea7 99bf 4fb7 9f3e 5ba4 ae3c 2ea0 493e
00000180: 258b 143d 9863 81bf 9abc bd3d c6c8 06bf
00000190: 7e51 87bf b4e6 bfbc bb27 5cbf 107e 91bf
000001a0: 5705 21bf b66e ee3e beb3 053f 001b 293e
000001b0: ba76 263f 2d4d b4bf 0e85 35be 64f4 903d
000001c0: e9d9 c7bf f699 64bf f0c8 e03d f76f 86bf
000001d0: d800 13bf 8831 983e c8cd b1bf a45e b3be
000001e0: 851a 3ebf b180 aa3e 04ba dc3e babe 7cbd
000001f0: c862 8bbf c62f f63e 2e79 58bd 2846 503e
00000200: 9c1d f0bf 1265 54bf 2b7f db3c 5c2d c0bf
00000210: 3ab9 ecbd 4730 f93e 7941 27be e81b c4bf
00000220: 1296 eabe dcf3 013f 4e8c c73e 25f7 023f
00000230: 10b9 99bf dadd e8bf 568d a73d 5b76 a43d
00000240: 8ac2 923c 25d4 c2bd 523b 8bbf 3ae6 f6be
00000250: 9417 c53e b550 28bf 37a6 9cbf a669 8fbd
00000260: 5bb8 71bf 71bf 80be cf19 0f3f 2253 d33e
00000270: 1eb2 40bf e917 b03e 02b0 ebba 210d 04be
00000280: 7954 343e 3960 33be 857b f5bf b172 9e3e
00000290: 9b62 0ebe d65b 36be 2e59 b83e 7522 c43e
000002a0: 8ceb 45be 1175 f7bd 5ccb e0bc 255c a7bf
000002b0: b7b7 cebd fff4 46bd 5c30 d83d eb7f fe3d
000002c0: a9fd 80bf 05a5 8abd 1dfe f6bf bd3b 8d3e
000002d0: 7762 173d 2955 9dbf 1d78 ec3d 0384 4cbf
000002e0: 805e 2b3e 6395 a03e b84f 913e e41e e53d
000002f0: 8a97 f53e 8142 063e d47a 50be 7af6 243c
00000300: bd1b bebf b206 f6bd 44ed 45bf 6d0d 02bf
00000310: 6e08 84bf 082a de3e dcaa 103f d172 773e
00000320: 540b edbe bb95 343f 13f4 d73e 0626 a3bf
00000330: 1156 96be ba6f b2bf 8b4f 413d 5d7a 483e
00000340: 5626 073f e545 63bd 0a55 f6bd 061c 32bf
00000350: 7c71 783e c416 a8bf 9ce5 68bf b428 043e
00000360: 3e30 983c 8a38 9fbf 7fbc dfbd f4fc aa3c
00000370: 59f3 c8be 4619 5b3e 1586 60be ac6b c83d
00000380: 52b6 153f f583 013f 97eb 64bf 3390 19bf
00000390: 5ac1 01bf 013a f3bf 1751 0c3d 51d5 6abf
000003a0: 14e2 263c c34d c9bd 9655 d23e 9580 383e
000003b0: 60bc d6be 82e3 1f3b 009d 81bd 583b 3dbe
000003c0: d58f 893d 21a7 5a3d 633e 00bf 7e25 69bd
000003d0: 54c4 463e 9bd2 5fbf 26f9 40be cb75 e9bf
000003e0: 6374 893e 5eb7 e6be caf3 bbbe 53bb cc3e
000003f0: 2049 a9be 6eda 1b3e 8d49 b3bb 2510 1c3d

l3.bias f4 [50]
0.015733821 -0.15923207 0.030546054 0.23992175 -0.06694134 0.2479986 -0.10987265 0.026633121
0.07279602 -0.07293708 -0.1742853 -0.08976685 0.22974335 -0.281314 -0.12680836 -0.0860646
-0.08405268 0.023270933 -0.20978692 -0.12034667 -0.034213033 -0.20608073 0.027706662 -0.028819118
-0.029298402 -0.13803096 -0.16333057 0.08026977 0.05248674 0.05696346 -0.09152476 -0.093103044
-0.10375111 -0.24417132 0.2582483 0.025318442 -0.18002519 -0.085921146 0.038746033 0.010525672
-0.19861938 -0.14290147 0.025798293 -0.38982135 -0.20685545 0.10092697 -0.3056876 0.12618233
0.16812761 0.12996683
00000000: 37e4 803c bb0d 23be b83b fa3c 0cae 753e
00000010: 8b18 89bd 58f3 7d3e e904 e1bd b42d da3c
00000020: 1416 953d 0960 95bd d877 32be afd7 b7bd
00000030: d741 6b3e 6308 90be 0dda 01be a342 b0bd
00000040: d023 acbd afa2 be3c 62d2 56be 5178 f6bd
00000050: f722 0cbd d406 53be 15f9 e23c 1216 ecbc
00000060: 3403 f0bc fd57 0dbe 2140 27be 7a64 a43d
00000070: 56fc 563d 8452 693d 5571 bbbd cfac bebd
00000080: 767b d4bd 0c08 7abe 1f39 843e 9f68 cf3c
00000090: 8658 38be 6df7 afbd 29b4 1e3d de73 2c3c
000000a0: e162 4bbe c354 12be f156 d33c aa96 c7be
000000b0: ead1 53be cdb2 ce3d 1683 9cbe f135 013e
000000c0: a529 2c3e 0616 053e
